data.pth (torch, 20266 bytes, 6 tensors)

l1.weight f4 [16, 183]
000000 6b 09 b7 be 83 1d 8e be 35 d4 4e 3f 34 f7 33 bf
       -0.35749373 -0.2775689 0.8079255 -0.7029908
000010 d8 71 35 be d1 fb 27 3f 8d 03 6d bd c2 5d 7a 3e
       -0.17719209 0.65618616 -0.057864714 0.24449828
000020 fc 7b 3a bd 14 dc 94 3e c9 df 2a 3e 80 a7 2c 3f
       -0.045528397 0.29074156 0.1668693 0.67443085
000030 d4 4a 7a be 2e 7d 0c bf 87 e4 12 3e 25 ca 35 bf
       -0.24442607 -0.5487851 0.14344989 -0.71011573
000040 53 f2 2c 3e e8 1e 31 bf 53 90 c5 bd 55 2e b8 be
       0.16889314 -0.69187784 -0.09646668 -0.3597285
000050 cb 00 18 3f b5 ab 48 be 88 b2 9f 3c b2 62 64 3f
       0.5937621 -0.19596751 0.01949431 0.892131
000060 ff 46 97 3e 6f 47 db 3e 0e 3f 03 3f 10 65 a5 be
       0.29546353 0.42827937 0.5126809 -0.32303667
000070 89 7a 28 3f 10 a0 c2 3c b6 a0 ca 3d 19 48 c8 3e
       0.65811974 0.023757964 0.098939344 0.39117506
000080 bf dc 2b be 2b 60 e8 bd 56 4a 11 3f 56 b2 21 3f
       -0.16783427 -0.113464676 0.5675405 0.63162744
000090 24 31 de 3e 77 54 44 bd 19 42 05 be 0e 18 93 3d
       0.43396866 -0.047932114 -0.13013496 0.071823224
0000a0 a7 88 b1 be 08 8e 6e 3d 4e 2e ea be ef f1 f4 bd
       -0.3467457 0.05824092 -0.45738453 -0.11960208
0000b0 5e 9b 6f 3f e3 ce e0 be da 03 4e 3e 7f da 1f 3e
       0.93596447 -0.43907842 0.20118657 0.15610693
0000c0 d6 ab cf bc 41 39 55 3d 96 fe 41 3f ca 14 7f 3f
       -0.025350492 0.052056555 0.7577909 0.99641097
0000d0 81 e3 32 bf 9c e5 17 bd 25 00 a7 be 85 a0 3b bf
       -0.69878393 -0.037084207 -0.32617298 -0.7329181
0000e0 5d 6e 17 bf 65 9a 03 3f a5 8a 4d 3e 68 05 cc bd
       -0.59152776 0.5140746 0.2007242 -0.09961969
0000f0 66 b3 a6 be e9 3a 24 3f 82 d6 a4 3d f0 8f 7c bd
       -0.32558745 0.6415239 0.080487266 -0.061660707
000100 d9 e7 c4 bc 55 2a 55 3e af 44 a8 3a 1a e4 09 3e
       -0.024036335 0.2081693 0.0012837852 0.1346592
000110 20 61 4e bf 36 b3 62 3d d7 58 89 bd 75 39 03 3f
       -0.8061695 0.05534669 -0.06706398 0.5125955
000120 dc 22 2f 3f 36 7c 3e bf 7d 48 e6 be 0d 4f 08 bd
       0.68412566 -0.7440828 -0.4497718 -0.033278514
000130 ef 2c 98 3e 42 92 77 3e 44 ee 02 bf f6 6d 25 3e
       0.29721782 0.24176887 -0.51144814 0.16155228
000140 ed b3 e9 be e8 9b 23 be 6a 89 63 3e 68 ac 4a 3d
       -0.45645085 -0.15977442 0.22220388 0.049480826
000150 78 29 2d bf f9 58 2f be b5 9d 8c 3e 5e 38 9c be
       -0.676414 -0.17123784 0.2746407 -0.30511755
000160 83 ac 87 3e 98 2a 45 3e 69 e0 cc 3e 9f 36 4c 3f
       0.26498803 0.1925453 0.4001496 0.79770845
000170 64 e0 0d 3e 60 e4 d0 be 0c 8d 1b 3d 80 1d 35 3f
       0.1385513 -0.40799236 0.03797631 0.7074814
000180 42 b0 1b 3d e8 63 1e bc 16 62 14 bd cc ed 6a 3f
       0.03800989 -0.009667374 -0.036226355 0.917691
000190 72 a6 58 3f 03 78 c3 3e 18 23 36 3f 32 f4 55 3d
       0.84628975 0.381775 0.711473 0.052234836
0001a0 83 4b 30 3e fc d0 77 3e df d1 2c be 0c 0f ec 3d
       0.17216305 0.24200815 -0.16876934 0.115263075
0001b0 b2 9d dc bd c7 50 1a 3e b0 b3 82 3c 5e 1e 5a bf
       -0.107722655 0.15069877 0.015954822 -0.85202587
0001c0 6d 4a ec bd b7 c7 61 3e ec 1c cd b9 5b 28 28 bf
       -0.11537633 0.22048841 -0.00039122195 -0.6568658
0001d0 ba c6 76 bd ae 2a 8f 3d 7b 1b 9d be ee 57 8b 3d
       -0.060248114 0.069905624 -0.30685028 0.06803881
0001e0 6c 03 cf 3e 74 47 9c 3d ee c6 07 3e 30 06 23 3c
       0.40432298 0.07630816 0.1325948 0.009950206
0001f0 8f f0 3a 3e fb a2 32 3f c5 7b 93 be 62 6f 37 3e
       0.18255828 0.6977994 -0.28805366 0.17913583
000200 0c be 9f bc 33 9b e5 bb 42 3e 25 3f 9f 01 d4 bd
       -0.019499801 -0.0070070266 0.6454812 -0.10351872
000210 26 e3 40 bf f9 2d 7c bd 17 67 18 3e af 3b f0 3e
       -0.753466 -0.06156728 0.14883076 0.46920535
000220 28 4a 44 3e f9 34 f6 3d 53 f9 18 3f 4e aa 6e 3e
       0.19168913 0.120218225 0.5975544 0.23307154
000230 ef ca 15 3e 54 43 e8 3d 9a ce e7 3e d0 0f a1 be
       0.14628194 0.11340967 0.45274812 -0.31457376
000240 e5 8b 10 3e d2 a9 e4 3f 00 0b cc 3b 78 d4 37 bf
       0.14115866 1.7864325 0.0062268972 -0.71808577
000250 de f2 63 be f2 41 df bc 0b c8 34 3e be bc a9 be
       -0.22260615 -0.027253125 0.17654435 -0.3315181
000260 a0 a6 c2 3b 51 be 97 3d 98 3b 71 3f 7d ea 57 3f
       0.0059402734 0.07409347 0.9423156 0.84342176
000270 0b 79 22 bf 74 7a c0 3c 50 e5 23 bf 0b 3a bc 3f
       -0.63465947 0.02349589 -0.6402178 1.4705213
000280 37 0c 00 3e 40 ac 80 3e c0 ba 56 3f cc 3d 36 3f
       0.1250466 0.25131416 0.8387871 0.71188045
000290 11 2b 11 bf b0 c3 12 3f 42 8c 3a 3d a0 32 5f be
       -0.5670634 0.57329845 0.045543917 -0.21796656
0002a0 15 9a a6 3d 83 fa 8c 3e b3 50 bb 3e 92 4b 7c 3e
       0.081348576 0.27534875 0.36585006 0.24638203
0002b0 d7 3a da 3d f1 95 f1 3b 5f d3 07 bf 52 4d f4 bc
       0.10655754 0.0073726107 -0.530569 -0.029822025
0002c0 d7 3d bc be a3 a1 69 bd 4a 1b 1e 3d 3f 37 83 bd
       -0.3676593 -0.057038914 0.038600244 -0.06407022
0002d0 88 b2 8e 3d 2f fa 2e 3f 63 a7 a4 3e d8 1d 91 3d
       0.06967646 0.683505 0.32158956 0.0708577
0002e0 10 b4 80 3d ef 03 74 3e 17 fb 2e 3f dd 4a 77 3e
       0.06284344 0.23829626 0.6835188 0.24149652
0002f0 ab 08 b1 be 2f b2 a8 3d a3 46 04 3e 8f 97 c6 3e
       -0.34576926 0.08237111 0.12917571 0.38787505
000300 43 27 eb 3d 76 4a 85 3e 18 3b 18 3f b7 e0 38 3d
       0.11482098 0.26033372 0.5946517 0.04513618
000310 da 0b ec 3e 5e 6e e3 3d b0 af 12 3f 09 db 8c 3d
       0.46102792 0.11105035 0.5729933 0.06877715
000320 3e 07 3b 3f 17 5f ba 3e 2d d9 41 3e 70 84 b9 3c
       0.73057926 0.36400673 0.18930502 0.022646159
000330 f7 ec af 3e ba 50 de 3e cc d0 9d 3e 71 8e 36 3e
       0.34360477 0.43420964 0.30823362 0.17827775
000340 ca 37 1d 3e e6 6c 91 be 29 ad cc 3e 9c 0c fe 3e
       0.15353313 -0.28403395 0.3997586 0.49618995
000350 cb a7 07 3f 28 a7 a1 3c 4a 8a 6d 3e 2f a1 43 3e
       0.52990407 0.019733027 0.23197284 0.19104455
000360 3f d4 94 3e 73 46 45 be 99 6d da bd e7 ff 09 3e
       0.2906818 -0.19265155 -0.10665435 0.13476525
000370 95 95 92 3e 96 97 4a be 02 a7 60 3e 9d e7 eb bd
       0.28629747 -0.19784388 0.21938708 -0.11518786
000380 ed 0d 03 bd 60 28 18 3f d1 0a 34 be b9 e0 75 bf
       -0.031995703 0.5943661 -0.17582251 -0.96046025
000390 1c a5 ab 3e ce 31 95 3e 44 cf 6a 3e 60 6e c6 3e
       0.33524406 0.2913956 0.22930628 0.38756084
0003a0 37 1a 70 3c d5 66 13 3e 5d 55 d0 be 1e 0e 4b 3e
       0.014654688 0.14394696 -0.40690127 0.19829604
0003b0 4e cc 56 3e e0 96 d2 3e 20 33 46 3f be 54 19 3f
       0.20976374 0.41130733 0.7742176 0.5989493
0003c0 21 e3 10 be ae 93 32 3f 35 9a d8 be 7c 8c bc 3e
       -0.14149143 0.6975659 -0.4230515 0.3682593
0003d0 bb ad 0e be 75 39 f0 3e fa 01 be 3e e5 68 03 bd
       -0.1393346 0.46918836 0.37110883 -0.032082457
0003e0 77 c8 05 3f e1 4a d0 3e 49 32 f7 3e b5 33 1b 3f
       0.5225901 0.40682128 0.48280552 0.60625774
0003f0 11 df 52 be 00 0f a2 3b 27 17 22 bf e6 cd 21 bd
       -0.20592906 0.004945636 -0.6331658 -0.039503

l1.bias f4 [16]
000000 51 e6 28 3e e1 26 0f 3f 5b 01 9c 3e 21 f3 b6 3e
       0.16494109 0.559187 0.30469784 0.35732368
000010 48 56 05 3f 11 66 7c 3e a8 6d 54 3e cc 7d f0 3e
       0.5208478 0.2464831 0.20744956 0.46970975
000020 dc ee ac 3e c0 5d ad 3e 4c 1a ce 3d 9e fe cf 3e
       0.33775985 0.33860588 0.100636095 0.40623945
000030 e5 9b b7 3e 13 73 f5 3e 09 b1 ca 3e 0f 19 1d 3f
       0.35861126 0.47939357 0.39588192 0.6136636

l2.weight f4 [16, 16]
000000 8d 76 26 3e 22 7d 33 3e 8d 01 72 3f 3e 37 6e bd
       0.16256161 0.17528203 0.94533616 -0.05815815
000010 50 9a 4c 3f 98 aa 8d 3f bd 2c a5 3e dc 8e 75 be
       0.7992296 1.1067686 0.32260695 -0.23980278
000020 0f c6 6f 3f 4d 32 0e 3f 0f e6 40 3f 3b 7f 73 3e
       0.9366159 0.555455 0.7535104 0.23779003
000030 8c 29 f5 bd 0b 21 27 3e 40 b2 fc be d1 52 48 bf
       -0.11970815 0.16321199 -0.49354744 -0.7825137
000040 d5 c5 64 3f 93 93 b6 3e ba 1c 35 bf 43 f6 df be
       0.8936437 0.35659465 -0.7074696 -0.4374257
000050 9d 49 06 bf 2f 1e c4 be f9 b1 1f 3f c5 e6 79 be
       -0.52456075 -0.38304278 0.6238094 -0.24404438
000060 2e 42 a6 3e 7e b8 05 3f e0 9c 52 3f 65 38 09 3f
       0.32472366 0.5223464 0.8227062 0.53601676
000070 fd 19 80 3d 73 a0 e0 be d2 0f 17 3f 33 93 7f 3e
       0.06254957 -0.43872413 0.59008515 0.24958496
000080 f1 4a 88 3f ee f3 3e 3c 66 7c 71 3f 6d 8a 11 be
       1.064787 0.011654837 0.9433044 -0.14212961
000090 13 6f 55 3f b3 ae 47 3e 84 1b 4a be 66 2f a5 3e
       0.8337261 0.19500236 -0.19737059 0.32262725
0000a0 5e 61 aa be 14 9b 36 3e 8c f3 d3 be 88 3a 3c 3f
       -0.3327741 0.17832595 -0.4139675 0.7352681
0000b0 23 94 0f 3e 0f e4 65 bf ba 3d fb 3e af f8 9e 3e
       0.14021353 -0.89801115 0.4907053 0.31049106
0000c0 8b da f8 be 33 23 0c 3f 83 df 7b be 99 43 ae be
       -0.48604235 0.5474121 -0.24596982 -0.34035948
0000d0 b4 cb 2f bf 50 fb a1 be 7d d9 88 3f f4 83 b0 bd
       -0.686702 -0.3163705 1.0691372 -0.08618918
0000e0 93 b8 92 3f 6a c8 e7 3e 8d 61 f9 3e bd d1 f4 3d
       1.1462578 0.4527009 0.48707238 0.11954067
0000f0 be 35 a0 bf ba 64 f8 3e 30 ff 31 be 4a bb 4e 3f
       -1.2516401 0.48514348 -0.17382503 0.8075453
000100 aa 36 57 be 9e d5 7d be a0 6f db 3d 26 60 61 be
       -0.21016946 -0.2478852 0.1071465 -0.22009334
000110 ee 8a 72 be 40 12 fd bd 00 fa c5 bc e8 d9 6c 3d
       -0.2368581 -0.123569965 -0.02416706 0.057825
000120 30 9d 6f be 02 c5 10 be ee 9f 4e 3e 2a 8c 11 be
       -0.23399806 -0.14137653 0.20178196 -0.14213625
000130 98 51 58 3e 96 75 2a be 60 b4 77 3c da 5d 2b 3e
       0.21124876 -0.16646418 0.015118688 0.1673502
000140 86 dd f1 bd 6e 9d 22 be 0a 1a 39 3e 7d 10 44 be
       -0.1180983 -0.15880367 0.1807634 -0.19146915
000150 44 fb 61 3e bd 53 5e be 04 f2 21 be 20 ed d7 3d
       0.22068506 -0.21711631 -0.15814978 0.10543275
000160 54 57 8a 3d a1 2d 7e be b2 0d 15 3e 05 87 5b be
       0.06754938 -0.24822094 0.14556006 -0.21438225
000170 31 be 7d 3d e8 73 52 bd 3e d6 46 be 7d 89 72 3d
       0.06194896 -0.051380068 -0.19417664 0.05921315
000180 86 64 88 3f 80 ff 2e 3e 85 75 a9 bf d2 db de 3e
       1.0655677 0.17089653 -1.3238989 0.43527085
000190 2b 7b 92 3f 0c 81 1e 3e 04 62 79 3e 39 39 a1 bc
       1.1443838 0.15478915 0.24353796 -0.019680606
0001a0 e6 5c b3 3e 61 b8 de 3d 4d 4c 79 be 07 1a 1a be
       0.35031813 0.10875011 -0.24345513 -0.15048991
0001b0 58 09 f0 3e d9 66 65 3f 25 33 ca be 12 4b d3 be
       0.4688213 0.8961006 -0.39492145 -0.41268212
0001c0 ae 5f 06 3d 48 77 bc 3e cb 0a 54 bf 32 a7 8c bc
       0.03280609 0.36809754 -0.8282897 -0.017169569
0001d0 43 1f 8c 3c 94 81 ff be ec ea 39 3f 36 f8 f0 be
       0.01710475 -0.49903548 0.7262409 -0.4706437
0001e0 00 8b 87 3d 78 ec d5 3e 95 4b 98 3f 48 63 77 3f
       0.06618309 0.41781974 1.1898066 0.96635866
0001f0 81 48 ca be 13 7c c6 be 39 bf 62 3e 9f 78 78 3e
       -0.3950844 -0.38766536 0.22143258 0.24264763
000200 92 fb a1 be d1 a7 fa 3e 57 bf a8 3e f3 dc 7f bd
       -0.31637245 0.4895616 0.3295848 -0.062466573
000210 19 e3 66 3f b2 dc 76 be 6b 89 56 3e 84 1f a8 3f
       0.90190274 -0.24107626 0.20950858 1.3134618
000220 85 32 04 bf 51 f7 62 bf f7 b0 10 bf d7 cc ba 3e
       -0.51639587 -0.88658625 -0.56520027 0.36484405
000230 85 de 14 3e dd d9 76 bd 8c ee 70 3f c0 1e 84 3f
       0.1453801 -0.060266364 0.94113994 1.0321884
000240 8e 7a 6e bf 03 84 85 3f d9 af b3 3e d1 86 a6 3e
       -0.93155754 1.0430912 0.350951 0.32524732
000250 28 96 23 3e ea a2 07 bf 1b e6 f4 be 45 36 e3 be
       0.15975249 -0.5298296 -0.47831807 -0.44377342
000260 41 0d 2c bf 91 03 21 3b b7 7c 4c 3f f2 ab 1a 3f
       -0.67207724 0.0024568776 0.798778 0.6041862
000270 50 ef 29 3f 1a 7d 93 be e8 53 ba 3e 9c 84 21 3f
       0.66380787 -0.28806382 0.3639214 0.6309297
000280 11 57 16 bf 6a 04 02 3f 6e 15 2b bf b7 9e a7 3f
       -0.587266 0.50787985 -0.66829574 1.3095311
000290 23 a5 5d be 7d 44 41 3f d4 1b 39 bf 30 43 12 3f
       -0.21645026 0.7549513 -0.7230809 0.5713377
0002a0 56 cc b0 3d 9a 7a c8 3e b1 60 1c bf 81 ec 06 be
       0.08632724 0.39156038 -0.6108504 -0.13176157
0002b0 f8 40 ae 3f 45 bb 92 3f c2 aa 3e 3e f9 1e bf 3e
       1.3613577 1.14634 0.18619826 0.37328318
0002c0 16 b9 b6 3e 61 86 27 3f 15 c9 84 3f 88 8f 36 bf
       0.35688084 0.6543942 1.0373865 -0.7131276
0002d0 b7 9e 15 3f 05 7a 97 3e bb 2b c7 3e 2f d0 2a bf
       0.58445305 0.2958528 0.3890055 -0.6672391
0002e0 93 0a 41 3d 90 51 c5 3e e6 58 ae 3f 72 3f 20 3e
       0.047129225 0.3853879 1.362088 0.15649202
0002f0 2f 06 05 3e 05 d7 95 bd 37 f4 1b 3f d3 b5 5c bf
       0.1299064 -0.07316402 0.6091952 -0.8621494
000300 ea ad 72 3f ee 19 8c 3e 8a 2d 31 3f 00 a5 6c bf
       0.9479662 0.27363533 0.6921011 -0.9243927
000310 b5 45 4a bd f3 1b 3a bf aa b2 47 3f 4b ab d6 3e
       -0.049382884 -0.726989 0.78006995 0.4192756
000320 fe e9 5c 3e ed 26 ef bd ec 53 43 be e3 37 16 3e
       0.21573636 -0.116773464 -0.19074982 0.14669757
000330 30 15 1b be 53 86 f4 3e 0a bf 63 3f 16 03 66 be
       -0.15144801 0.4775873 0.8896338 -0.22462115
000340 91 a6 fc 3e 5b 1b 71 be 88 77 81 be 11 cb 04 3f
       0.4934583 -0.23545592 -0.25286508 0.51872355
000350 6f 2f 14 3e 40 f2 b7 3e cc 12 1f 3e c4 78 9a be
       0.1447122 0.3592701 0.15534514 -0.30170262
000360 b8 8c 88 3f 2f 07 4a 3f 4f ba 20 3e 1f 2e da 3e
       1.0667944 0.7891721 0.15696071 0.42613313
000370 0d 15 fb be 07 59 b8 3e c0 a3 f8 be 05 18 11 3f
       -0.49039498 0.36005422 -0.4856243 0.56677276
000380 3f a2 92 3a 3b e0 27 3f f5 c7 85 3f dc d7 fe 3e
       0.0011187269 0.65576524 1.0451647 0.49774063
000390 21 02 e8 be fb 25 6b 3f e6 6c 79 be 66 d3 9b 3f
       -0.45314124 0.9185483 -0.24357948 1.2173889
0003a0 d7 75 95 3a 80 5f 3a 3f 2b 69 34 bf 4c 2d 29 bf
       0.0011402917 0.7280197 -0.70472974 -0.6608474
0003b0 a4 d9 d0 3b 1a 0a b2 3e d9 1e 45 3f 7b 6d 0b bf
       0.006373601 0.34773332 0.77000195 -0.5446393
0003c0 f1 ef 3f bf 53 f1 06 3d 25 bf 3a be 63 4b 40 3f
       -0.74975497 0.03294499 -0.18236978 0.7511503
0003d0 87 33 e4 3f 0e 14 05 3e 3a 59 49 3f 7a f6 b1 be
       1.7828225 0.12995932 0.78651774 -0.3475836
0003e0 4b 41 0e 3f a9 88 53 bf 9d 84 fb 3e 41 56 f9 3e
       0.5556838 -0.826304 0.49124613 0.4869862
0003f0 43 a9 2e be a5 c3 ec 3e a3 ef db be d3 e9 80 3f
       -0.17056756 0.46243015 -0.42956266 1.0071357

l2.bias f4 [16]
000000 1f cb ea bd 21 d7 33 be 9e 64 04 be 6b cf c7 3e
       -0.114645235 -0.17562534 -0.12929007 0.39025435
000010 8c a3 3b be da e2 68 be e7 60 8c bd 46 ad 63 3e
       -0.18324107 -0.22742787 -0.0685442 0.22234067
000020 25 94 de 3e 35 cc e5 3e 39 ce 60 3e b8 98 c4 3d
       0.434724 0.4488236 0.21953668 0.09599441
000030 a8 e4 c1 3e f2 04 0a 3e a8 a1 85 3e 6f 5c 0d 3e
       0.37869763 0.13478449 0.26099896 0.13804792

l3.weight f4 [29, 16]
000000 5c 50 87 3e 3b 15 50 bf 0f 3b 27 bf 82 72 3a 3f
       0.26428497 -0.81282395 -0.6532449 0.72830975
000010 98 ca 49 3d ca d5 6e 3d f4 ed 64 bf 68 cf 75 bf
       0.049265474 0.058309354 -0.8942559 -0.960196
000020 b4 0e 6e bf 00 8d 84 3e f6 d2 23 be 77 48 ca 3e
       -0.92991185 0.25888824 -0.15998444 0.3950841
000030 3a 9f ec be 9a 38 20 3e cd a8 03 3f aa 8e 0b c0
       -0.4621523 0.15646592 0.51429445 -2.1805825
000040 90 2e 4f 3e 67 ca a8 bf a6 7b 1b bf d0 32 0e bf
       0.20232606 -1.3186768 -0.6073555 -0.55546284
000050 00 86 04 ba e6 f4 05 3e 04 5b 61 be 82 b3 9d bf
       -0.0005055368 0.13081703 -0.22007376 -1.2320406
000060 f9 3d d3 bf 2f dd 46 3e 7b 9c 97 3e 63 17 71 3e
       -1.6503288 0.19420312 0.29611573 0.23544078
000070 e2 aa eb bf 0a c8 73 bd ce 42 ba 3e a9 62 16 bf
       -1.8411524 -0.059516944 0.36379093 -0.58744293
000080 e1 20 a3 bf 9e aa a6 bf e1 42 11 c0 e8 9b 60 be
       -1.2744409 -1.3020818 -2.269707 -0.21934474
000090 a8 aa 88 bd 13 d1 2a be de d8 d9 3d 8b 22 16 bc
       -0.06673175 -0.16681318 0.10637067 -0.009163509
0000a0 7f 85 04 3e b6 b1 d7 3e 78 2c 4a 3e 9b c5 41 bf
       0.1294155 0.4212777 0.19743526 -0.75692147
0000b0 8c 16 a1 bf a0 66 62 be a3 a7 e5 bf 4e c2 17 3f
       -1.2585006 -0.22109461 -1.7941784 0.5928086
0000c0 93 2b 1a 3e f3 40 9e bf ba fb 84 bf b4 f6 cb bf
       0.15055685 -1.2363571 -1.0389321 -1.5934663
0000d0 f6 7b 7c 3e be 23 11 3e 1c a3 23 3e db 52 23 bf
       0.24656662 0.14173791 0.1598019 -0.637983
0000e0 6a 7e 27 bf c9 23 4a 3e 34 d1 de 3e b3 ab de be
       -0.6542727 0.19740213 0.43518984 -0.4349037
0000f0 1b ec a1 bf 73 13 d9 bd c0 95 15 bf 6e a8 9a bb
       -1.2650179 -0.10599413 -0.58431625 -0.0047197854
000100 73 b0 ab bf b2 ed 0c bf f2 94 16 3f 2d 5d e8 bf
       -1.3413223 -0.55050194 0.5882102 -1.8153435
000110 90 d0 d7 3d 53 5a 81 be df 59 f0 bf 5f cf 77 3e
       0.10537827 -0.25264224 -1.8777426 0.242002
000120 2e ac 14 3f 23 82 6d 3e d2 ed ea 3d 51 61 dd bf
       0.58075225 0.23194174 0.11471142 -1.7295324
000130 03 14 ab bf e7 9f 92 be aa a1 57 bf 13 0e 82 3e
       -1.3365482 -0.2863762 -0.84231055 0.25401363
000140 54 46 3c bc 59 ca 06 bf d7 8a e2 3e e8 05 83 bf
       -0.011491377 -0.5265251 0.4424655 -1.0236177
000150 88 d6 2c bd d3 e3 d8 3d 8f 6b da bf 2d f2 ac 3d
       -0.04219678 0.10590329 -1.7064074 0.08444629
000160 b1 d3 d3 3e d7 58 97 bd 7b 80 ae bf 7e 6e 6f bf
       0.41372445 -0.07389992 -1.3632959 -0.9352797
000170 3b 23 95 3e a4 83 10 be a9 9e 93 be d4 5c aa 3e
       0.2912844 -0.14112717 -0.28831986 0.33273947
000180 97 4e a9 bf 82 2b 85 bf fc 3c 18 3d ba d1 9e bf
       -1.3227109 -1.0403903 0.037167534 -1.2407753
000190 f4 d8 7e be 78 76 d3 bb fb e3 b3 bf f0 21 ae bf
       -0.24887449 -0.0064533316 -1.4053949 -1.3604107
0001a0 8d 55 fe 3e 85 4a 4a 3e 58 bd 1e 3d 07 93 0b 3e
       0.49674645 0.1975499 0.03875479 0.13630305
0001b0 b7 9e de bc fb 80 04 c0 30 e5 bf 3e bb 94 95 bd
       -0.02717529 -2.0703723 0.37479544 -0.07303759
0001c0 68 0a 9e 3e b6 9c 86 bf 17 42 fd 3e 4a 23 4a be
       0.30867314 -1.0516574 0.49464485 -0.19740024
0001d0 30 1e 1b 3e 9c 9d 06 be 6c 46 c8 be 5a 7c 8e bf
       0.15148234 -0.1314606 -0.39116228 -1.1131699
0001e0 0e f5 b6 3c 39 bb c8 bf 97 3a bb bd 52 30 42 bf
       0.022333648 -1.5682136 -0.091420345 -0.7585498
0001f0 d2 2b 8d be bf b9 1e 3e a6 e5 91 3e 7a 9f c3 be
       -0.27572495 0.15500544 0.2849552 -0.38207608
000200 96 f5 57 3c bb 32 20 c0 44 f0 0c bf df 0b de be
       0.013181111 -2.5030963 -0.55054116 -0.43368432
000210 54 e3 16 3e 5d e8 14 be 9d 13 4e be 34 d1 74 bf
       0.14735156 -0.14541765 -0.2012467 -0.9563172
000220 4b 2b 33 3e 1a dd ea be a3 ef e1 3e 9f 5f 0a c0
       0.17496984 -0.45871812 0.4412814 -2.1620862
000230 e8 ef ea bf 4f 37 ad be df 24 a1 3e 1f 46 d0 3d
       -1.8354464 -0.3383126 0.31473443 0.101696245
000240 4a 18 45 bf 1e dc 98 bf d7 78 63 bf 95 e8 f2 bf
       -0.7699019 -1.1942174 -0.8885626 -1.8977228
000250 30 c0 8d bd bd 43 3d be 39 1c 87 3e a3 b1 cc bf
       -0.069214225 -0.18482871 0.2638872 -1.599171
000260 bd e7 ae 3d f8 c8 ce be 6f 6d 2f 3f 59 d4 72 bf
       0.08540294 -0.40387702 0.6852636 -0.94855267
000270 5a 26 24 3d d5 c0 4a bf 7a ff 0c 3f f7 b1 03 c0
       0.040075637 -0.7920049 0.55077326 -2.057737
000280 7f d8 a4 be f8 1c 32 be 57 b5 0a bf 9e b4 db be
       -0.32196423 -0.17393863 -0.5418295 -0.42911237
000290 e4 44 9f 3d 1d 1a 61 3e 81 c2 9e 3e ed cf 95 bf
       0.07776812 0.21982618 0.3100777 -1.1704079
0002a0 21 52 65 3d 1a ee fb bf dd 00 e0 3c 41 94 c9 3e
       0.055986527 -1.9682038 0.027344162 0.3937092
0002b0 0b 8d 03 3f fd b5 e0 be 50 ff 82 3e e9 c4 00 c0
       0.5138709 -0.43888846 0.25585413 -2.0120184
0002c0 ca ac 8f 3e b2 bf 2f bf 21 6c 3f bf b8 bd 73 bf
       0.28061515 -0.6865188 -0.74774367 -0.9521136
0002d0 f8 da a5 bd 2a 35 4f 3e e0 65 36 3f 67 4f c6 bf
       -0.080984056 0.20235124 0.712492 -1.5492982
0002e0 37 6b a3 bf b8 7e a8 bf 44 59 fa 3e c3 8b 23 bf
       -1.2767094 -1.3163671 0.4889623 -0.63885134
0002f0 a6 1b 2d bf a9 6d a3 3b 98 e2 a0 3e 95 c9 2f bf
       -0.67620313 0.0049874377 0.31422877 -0.68666965
000300 d9 79 81 3e f8 04 8d bc 34 a2 b5 3e 0d 74 a1 bf
       0.25288275 -0.017214283 0.35475314 -1.2613541
000310 34 f0 03 be ab 1d 97 3d 0e 7f 42 bf 71 bd 43 bf
       -0.12884599 0.073787056 -0.7597512 -0.7646094
000320 d5 64 84 bd 92 17 77 bf b4 93 c4 bf 61 c7 fd 3e
       -0.06464545 -0.9652034 -1.5357575 0.49566177
000330 54 fe a4 3e 6c 7e bc bf ea 35 8b 3e 51 dd b6 be
       0.32225287 -1.4726081 0.2718957 -0.35715726
000340 3c 3c c5 3e 50 ed b1 bb 17 53 cd 3e 3d 05 9f bf
       0.38522518 -0.005429901 0.40102455 -1.2423474
000350 ce 72 55 be 52 83 d4 bc cf b5 f8 3c f2 4b 8e 3a
       -0.20844576 -0.025941525 0.03036013 0.0010856374
000360 4c 97 b9 bf 87 ca ec be 96 f4 2b bf a4 60 dc 3e
       -1.4499297 -0.46248266 -0.67170084 0.4304248
000370 06 44 90 bd 4c bf 2c be 1a a0 c1 bd 70 6f a6 bf
       -0.070442244 -0.16869849 -0.09454365 -1.3002758
000380 e8 57 c5 3d 1f 67 b0 be 48 19 d4 3d e9 75 a5 bf
       0.096359074 -0.34453675 0.103563845 -1.2926608
000390 e8 70 a0 3d b3 be 2a be df 45 fc bf 18 80 a9 3e
       0.07834035 -0.16674308 -1.9708823 0.3310554
0003a0 7c fd 98 3d d3 29 1e 3f 1a c4 bf bf 36 4a 20 3f
       0.07470223 0.6178257 -1.498172 0.62613237
0003b0 6e 49 95 3e 03 58 0c c0 85 87 91 bf 75 19 ff bd
       0.29157585 -2.1928718 -1.1369482 -0.124560274
0003c0 74 51 a6 be 8d 83 22 be 97 cd ab bc 7a 3a b3 3e
       -0.3248402 -0.15870495 -0.020972056 0.35005552
0003d0 34 3a 8a bd 09 56 2e be 7d e1 30 bf d2 83 20 be
       -0.067493826 -0.17025007 -0.6909407 -0.15675285
0003e0 a8 44 9e 3d be 21 c6 3c 15 c5 91 be eb ad b3 be
       0.07727939 0.024186011 -0.28470674 -0.35093626
0003f0 11 c1 85 3e 23 b9 c6 be 3c b5 5b 3e e2 4d 5e bf
       0.2612386 -0.38813123 0.21455854 -0.8683759

l3.bias f4 [29]
000000 d4 ea ef 3d d0 6e f0 bd 4b 07 d4 3d 3e ec 5d bd
       0.11714712 -0.11739886 0.103529535 -0.054180376
000010 3a 90 21 be 38 1e 3d 3e 9b fd 80 be 1d 7f 07 be
       -0.15777674 0.18468559 -0.25193486 -0.13232084
000020 93 f9 4d 3e 45 52 99 3e 07 28 1f 3e b1 dc 4f 3d
       0.20114736 0.2994558 0.15542613 0.050747577
000030 c7 0e 62 3e b6 0f ef bc 5e 0a f2 bc da 2a 0f 3d
       0.2207595 -0.029182296 -0.02954596 0.034952976
000040 4d 86 86 be b2 5a ff bd 31 f4 b5 3d 21 eb b9 3d
       -0.26274338 -0.12468471 0.088844664 0.090780504
000050 70 0e 13 3e 49 7b 90 3e 4f 0b 76 3e ae a0 9d bc
       0.14360976 0.2821906 0.24027751 -0.019241657
000060 00 74 7d be 7a 7b bf bd 82 52 c6 be ea 43 21 be
       -0.24751282 -0.09349723 -0.38734823 -0.15748563
000070 9f 14 50 3e
       0.20320366
