ENSTA_BOT1/data.pth (torch, 20266 bytes, 6 tensors)

l1.weight f4 [16, 183]
000000 c6 21 50 be b8 fd 54 be 93 b5 8c 3e 82 45 33 3f
       -0.20325384 -0.20799911 0.2748228 0.70027936
000010 f4 92 8c be 98 51 43 3e 1b 04 ad be 3e 50 bf be
       -0.27455866 0.19074094 -0.33792195 -0.37365907
000020 be f9 64 bc a5 32 95 be d6 32 b1 bc 73 38 88 3f
       -0.013975559 -0.291402 -0.021630686 1.0642227
000030 24 91 4b 3c 29 0f d5 be 1f 5b e5 bd f6 f4 a5 be
       0.012424741 -0.4161313 -0.111990206 -0.32413453
000040 43 a1 e0 bd af 9e 5e 3d f6 9e d0 3e 3e c0 8a be
       -0.10968258 0.05435055 0.40746278 -0.27099794
000050 13 7d fa 3d 4d 7d 16 be 1e 0d 19 bd a8 7f b2 3e
       0.12230887 -0.14696236 -0.037366025 0.3486302
000060 54 a2 92 3e 94 8d 62 3e d2 8e 85 bd 37 fb 5e 3f
       0.28639472 0.2212432 -0.065213814 0.87102073
000070 bf b3 34 3d 96 62 8e bd 47 92 d3 be 8d 4d 6f be
       0.04411673 -0.069523975 -0.41322538 -0.23369427
000080 8f 99 62 bd 6b 03 a6 3d af d0 a9 3e bf 59 cb be
       -0.055322226 0.08106121 0.33167025 -0.39716908
000090 2a eb 8a 3e 27 61 0c 3f d7 d2 be be 5f 46 08 3f
       0.2713254 0.5483574 -0.37270233 0.5323238
0000a0 7a a3 0f be 48 96 7d 3d 57 d9 f7 3e 7f 53 08 be
       -0.14027205 0.061910897 0.48408005 -0.13313101
0000b0 39 4f 81 bf 67 0c 30 3f bf c5 5b 3e 6a db 03 3e
       -1.0102302 0.68768924 0.21462153 0.12876669
0000c0 53 14 e8 3e 39 35 d6 be ca 96 f4 3e a2 2c 3a be
       0.45328006 -0.4183748 0.47771293 -0.18181089
0000d0 c0 25 37 be 3c 59 3a be 87 33 06 bd e1 f5 c5 be
       -0.17885494 -0.18198103 -0.032763984 -0.38664153
0000e0 21 04 94 be 7e 78 43 be d0 83 40 3f dc e5 51 be
       -0.289094 -0.19088933 0.7520113 -0.2049784
0000f0 1d a9 a9 3e a1 8e ea 3e 4a b6 88 3e 40 6a 94 bd
       0.33136836 0.45811942 0.26701576 -0.07246828
000100 aa dd 17 be e2 4e dc 3e 28 1e d3 3e f5 e4 89 be
       -0.14830652 0.43028933 0.41233945 -0.26932493
000110 80 22 5a be 1a f5 38 be 5c 0d 5b 3d 44 00 14 bf
       -0.21302223 -0.18062249 0.053479537 -0.57812905
000120 b7 e7 1c 3f 70 f2 42 3f 48 61 23 bf 44 83 ec 3c
       0.6129107 0.7615118 -0.63820314 0.028871186
000130 62 52 24 bd c2 54 94 be 22 ba 3e 3e f0 ce b1 3d
       -0.04011763 -0.28970915 0.18625692 0.08682048
000140 74 62 9c 3e 46 36 55 be c9 5b 6e 3e d4 97 68 3d
       0.30543864 -0.20821485 0.23277201 0.05678542
000150 5d 59 84 be 9d 9e 48 bf 1d e6 9f 3e 37 de 7f 3e
       -0.2584943 -0.78367025 0.3123025 0.24987112
000160 85 e1 99 be ef e2 dc 3d 63 e0 6c 3e 4c c9 3b 3d
       -0.3005487 0.10785472 0.23132472 0.04584627
000170 82 42 69 bc 3b a0 cf 3e 84 48 8f bd ff 70 a4 bd
       -0.014237048 0.40551934 -0.06996253 -0.08029365
000180 e2 73 8e bd 34 b2 fb bc c7 c0 17 be 25 92 33 3e
       -0.06955697 -0.030724622 -0.14819632 0.17536218
000190 7b 3d 5d 3f 6c 16 9c 3e 83 85 f7 3e 63 49 63 bd
       0.86421937 0.30485857 0.4834405 -0.05548991
0001a0 23 0f 10 be 24 1b 9c 3d 6a 12 f2 3d 8b a7 93 be
       -0.14068274 0.07622364 0.118199185 -0.28838763
0001b0 6e c2 14 be fd 32 6b bd 29 b1 b6 be 6b 35 d0 3e
       -0.14527294 -0.057421673 -0.35682037 0.40665755
0001c0 dc 59 56 be a6 c0 0d 3f db e4 e7 bd ff 88 7d be
       -0.20932716 0.55372083 -0.113229476 -0.24759291
0001d0 8c d4 89 bd f0 41 71 3d 63 c3 10 3e a2 d6 d9 bc
       -0.06729993 0.058900774 0.14137034 -0.026591603
0001e0 38 07 95 3d 5c 6e 9f 3d 02 3f bf be 66 e8 20 3f
       0.072767675 0.07784721 -0.3735276 0.6285461
0001f0 94 4f 29 be 74 8a a5 3e db 50 d6 3e 83 94 f7 bd
       -0.16534263 0.32332194 0.41858563 -0.12088873
000200 49 44 1e bd 21 56 e6 3e dc 2d da bd 4b 64 40 3f
       -0.03863934 0.44987586 -0.10653278 0.75153035
000210 68 24 11 3f 2f 8d 39 be 6a ee fe bd 8c 3f 38 3f
       0.56696177 -0.18120264 -0.124478176 0.71971965
000220 3f 3f 82 3f 32 ae c2 3e 28 6c 1d bf ea 2c 29 bf
       1.0175551 0.38023525 -0.6149316 -0.6608416
000230 e0 a7 6d bb 7c ba 7a be cb 0b fd 3e db 18 38 3e
       -0.0036263391 -0.244852 0.4942306 0.17978232
000240 88 2d da bd cd ac cc bd e8 84 69 3d 1e de 47 3e
       -0.10653216 -0.09993897 0.057011515 0.19518325
000250 6d e2 ac be 4b 3f d5 3e 71 64 af 3e 1c 38 5a bd
       -0.337665 0.4164985 0.34256318 -0.053276166
000260 d8 d6 37 bd 10 9e 42 3f 9a 65 40 bf ee 1b 4a bf
       -0.044882625 0.76022434 -0.7515503 -0.7894887
000270 b2 45 2b bf f0 56 23 3d 10 79 a6 3f 26 57 57 be
       -0.6690322 0.039877832 1.3005695 -0.21029338
000280 fe c4 4b 3c 3b f0 d9 be 8d ed 91 bd b2 ea 16 3f
       0.012437103 -0.42566094 -0.07125387 0.58951867
000290 25 f3 05 3f 33 9a 24 3f c8 9e 09 bc 9f fe 34 bf
       0.52324134 0.6429779 -0.008399673 -0.7070102
0002a0 92 af 3a 3f 62 67 27 3f b6 87 4f be 60 2b 90 be
       0.7292415 0.65392125 -0.20266613 -0.28158092
0002b0 63 15 90 3e 95 87 21 3f 8f 6e 03 bf 9c 59 83 bd
       0.28141317 0.63097507 -0.51340574 -0.06413576
0002c0 7c d9 a6 3e 3c 4a 9c be 44 65 f3 bd 84 24 47 bd
       0.32587802 -0.30525386 -0.11884549 -0.04861881
0002d0 10 3c 16 3c 32 2b a3 3d b7 3d 70 3e 4c 14 1b 3f
       0.009169593 0.07967223 0.23461042 0.60577846
0002e0 f3 1c 20 3f 3e eb 67 3e be 89 89 3f 1b 84 70 3f
       0.62544173 0.22648332 1.074516 0.93951577
0002f0 c5 45 88 be 72 bf 23 3f 2d 7c bc bd 04 de 77 3e
       -0.2661573 0.63964 -0.09203372 0.24205786
000300 d1 f6 04 be 58 da 4a 3f ea fa 24 be b9 9a 53 3e
       -0.12984778 0.79239416 -0.16111341 0.20664491
000310 62 ff 54 3e 48 81 51 be 18 c5 11 bf 3a bf 29 be
       0.20800546 -0.20459473 -0.56941366 -0.16576853
000320 16 c2 f4 bd 1a b7 c7 3e 10 82 bd 3e f8 23 c2 be
       -0.119510815 0.39006883 0.37013292 -0.37918067
000330 3f 50 51 3e ce ec 30 3f 04 cd 91 3d 9d 5f 80 bd
       0.20440768 0.69111335 0.07119182 -0.06268237
000340 c8 c1 86 bd 7d 94 6d 3f 0b 42 42 3e 24 d7 1b bf
       -0.065799296 0.928047 0.18970506 -0.60875154
000350 45 7c b7 3e f8 e5 06 3f 43 11 3c 3e ce 75 1d 3f
       0.35836998 0.52694654 0.1836596 0.6150788
000360 c1 fe c0 3e 86 22 b5 be dd 3e 2e 3f c2 08 c4 ba
       0.37694362 -0.35377902 0.6806467 -0.0014956223
000370 ee 50 a2 be db c7 09 bf 8e cc 00 3e ac dd f2 3c
       -0.3170237 -0.5382058 0.12578031 0.029646717
000380 5c e8 56 3d 9d 2e 26 3f 73 73 7f 3f 9e e7 18 bf
       0.05246769 0.64914876 0.99785537 -0.5972842
000390 05 8e 97 3e 98 e0 0f bd 8e 5a ac bc d5 15 44 3c
       0.2960054 -0.0351263 -0.021039274 0.011968096
0003a0 28 1b 20 3f c5 ff 37 be bc 38 fb be 16 e3 af 3e
       0.6254144 -0.17968662 -0.49066722 0.3435294
0003b0 f0 80 b6 3e a2 b7 b6 bd 96 67 6b be 75 a7 bf be
       0.35645247 -0.08921744 -0.22988734 -0.37432447
0003c0 1b 0a 60 be dd 6f 37 be f7 18 a6 ba 2a d7 2c 3f
       -0.21878855 -0.17913766 -0.0012672235 0.67515814
0003d0 ca 8c 9d be eb 5b ba bd c5 da 91 3e 46 da b9 3e
       -0.30771476 -0.09099563 0.2848722 0.36299342
0003e0 0c 23 11 3d dd a0 d3 3e ae 0b df bb cc 9b 10 3f
       0.035433814 0.41333666 -0.0068068122 0.5648773
0003f0 e7 f6 2e 3f c1 78 56 bd ac 66 05 bf 7b f0 d0 3e
       0.68345493 -0.052361254 -0.5210979 0.40808472

l1.bias f4 [16]
000000 45 5d d7 3d 52 af e4 3e 97 3d 09 3f 82 4c c0 3e
       0.105158366 0.4466501 0.53609604 0.3755837
000010 67 aa f4 3e cf 07 b5 3e 2e c4 a1 3e 95 84 09 3f
       0.47786257 0.3535752 0.31594986 0.5371793
000020 eb d9 b7 3e 2a 7f 71 3e db f2 c0 3e 76 06 82 3e
       0.35908446 0.23583665 0.37685284 0.25395554
000030 ec 35 be 3e f6 11 39 3f 66 0c 96 3e fc 09 0a 3f
       0.37150514 0.7229303 0.29306334 0.53921485

l2.weight f4 [16, 16]
000000 48 0a 07 3d d6 46 33 be 73 76 0b be 29 2b 1c bd
       0.03296879 -0.1750749 -0.13619404 -0.0381271
000010 06 f0 21 3d 1a 23 0d be d2 d3 56 be c7 06 e6 bd
       0.039535545 -0.13782921 -0.2097924 -0.112317614
000020 36 4a 11 be 35 3b a0 bd bf 62 50 3e b2 3b cc bd
       -0.14188465 -0.07823793 0.20350169 -0.099723235
000030 52 fa 20 bd 71 79 c7 bd 77 32 01 3e c1 b7 2f 3e
       -0.039301224 -0.0973996 0.12616907 0.1715994
000040 43 dc 5c be 66 61 4b 3e bd aa d0 3e 9e db b1 be
       -0.21568398 0.19861373 0.40755263 -0.34737867
000050 99 55 6b 3f a0 e6 a8 be 2c c8 c4 bd 26 58 88 be
       0.91927487 -0.32988453 -0.09608492 -0.26629752
000060 5b 4a 85 3f c6 a1 50 3f 3c 06 b0 3e e1 15 ff 3d
       1.0413316 0.81496847 0.34379756 0.12455345
000070 5f 2b 3e 3f 74 9f df be 80 68 6d 3f 96 93 04 bf
       0.7428493 -0.4367634 0.9273758 -0.517877
000080 c8 0c 14 3e d9 59 3f be 74 8f 7e be 7e 6a d8 ba
       0.14458 -0.18686618 -0.2485941 -0.0016511229
000090 05 07 6c be 87 8a c4 3d 2d 86 0f 3d f7 77 0b 3e
       -0.23049553 0.095967345 0.03504007 0.13619982
0000a0 68 e3 bc bd 5d a4 6d bd 59 26 49 be db 89 1c be
       -0.09223062 -0.058018077 -0.19643535 -0.15286963
0000b0 2a 75 c9 bd a9 3a d8 bd 98 f5 7e be 41 56 92 3d
       -0.098368004 -0.105580635 -0.24898374 0.07145358
0000c0 36 1f 66 be 6d c0 59 3f 23 0b 1a 3f 7f 38 28 be
       -0.22472844 0.85059243 0.60173243 -0.16427802
0000d0 81 42 2b bf 28 27 3b 3f 9d 3b cd be 7a f5 43 bf
       -0.6689835 0.7310662 -0.40084544 -0.7654644
0000e0 aa 83 a5 be 95 a5 5f 3f db e3 a6 3f e8 e4 36 3f
       -0.32327014 0.87362033 1.3038286 0.71443033
0000f0 9e 8d 1b 3e bb fb c0 be 8f 61 bb 3d 07 ee 69 bd
       0.15190741 -0.37692055 0.09149467 -0.057111766
000100 02 9a 75 bb d4 ca 65 bf a5 24 4f 3f 64 44 14 3f
       -0.003747583 -0.89762616 0.8091529 0.57916856
000110 fa 64 c1 be 30 bf 9d 3e 67 f9 8e 3f 32 02 35 bd
       -0.37772352 0.30809927 1.1169862 -0.044191547
000120 86 52 8a bd 4c 5f 12 bf 66 99 8c 3c f8 89 84 3f
       -0.06754021 -0.5717666 0.01716299 1.0354605
000130 4d 09 41 3f 62 9c 0e 3f 6f e2 0c 3f 1c d1 e8 be
       0.75404817 0.5570737 0.5503301 -0.45472038
000140 10 bc d2 be 5e cc e6 3d cb 31 f0 3e 26 84 5e 3f
       -0.41159105 0.11269449 0.4691299 0.8692039
000150 1c 99 9d 3f 9d 8e 74 3e f5 fb 60 bf 90 f7 d8 bd
       1.231235 0.23882528 -0.87884456 -0.10594094
000160 70 25 ca 3e 0d 62 84 bf a1 d6 75 3f c8 48 90 3e
       0.39481688 -1.0342423 0.9603062 0.28180528
000170 cf 6f f3 be 3e a1 29 3f e2 8d 3e be de fc f6 3e
       -0.4754624 0.6626166 -0.18608811 0.48239797
000180 54 8b 4b 3e 00 93 8a bc f6 75 10 be 18 dd 59 be
       0.19877368 -0.016915798 -0.14107499 -0.21275747
000190 76 04 0a 3e ee 7c 66 be 30 22 72 be 40 fc f0 bd
       0.13478264 -0.22508594 -0.23645854 -0.11766863
0001a0 da b2 70 3e e8 da 22 3d 7c bc 5e be 4c b6 2f 3e
       0.23505726 0.039759547 -0.21751589 0.17159384
0001b0 72 02 3a be 40 ba b2 bc 54 aa af bd 90 8c 1d be
       -0.18164995 -0.021817327 -0.085774094 -0.15385652
0001c0 06 b5 81 be 19 62 03 bf fa 74 e1 3e f0 94 f7 3e
       -0.25333422 -0.5132156 0.4403456 0.48355818
0001d0 61 86 5c bf 31 4d 72 be 10 df 74 3f ac 83 70 be
       -0.86142546 -0.23662259 0.95652866 -0.23487729
0001e0 81 b6 5a 3d 4a 9b d0 3e 0f 41 3e bc 0a bf 9d 3e
       0.053396706 0.40743476 -0.011612191 0.30809814
0001f0 cf a5 8d 3f 0c 65 8d 3e a9 f2 8b 3f d5 df 8e 3e
       1.1066226 0.27616155 1.0933429 0.27905145
000200 c0 e9 66 bf 4e 29 91 3f 07 6c fd bd f6 00 77 3f
       -0.90200424 1.134073 -0.1237412 0.9648584
000210 f2 f6 85 3f 5f 4f 20 bf d5 59 ca be 72 99 32 be
       1.0465987 -0.6262111 -0.3952166 -0.17441347
000220 db 73 11 bf 91 7f 66 3d 9b 27 76 3f ad 59 3f be
       -0.56817406 0.056274 0.96154183 -0.18686552
000230 a9 4f a3 3e c0 cb eb 3e ad da 73 3e 3c 1a 50 3f
       0.31896713 0.46053886 0.23813887 0.8129003
000240 4f 85 47 3f 18 25 d9 be 4b b3 6e bf 71 2d 8c 3f
       0.7793779 -0.42411113 -0.9324233 1.0951368
000250 d2 da 85 3d 61 f1 03 3f 5f e5 c9 be 7f 93 df 3e
       0.06535877 0.5154019 -0.3943281 0.43667218
000260 a6 e1 4e 3f dd 3d 8f bf 82 2f 22 3f fd c4 42 3f
       0.8081306 -1.1190754 0.6335374 0.7608183
000270 3e 29 43 3f d7 fd d5 bd f1 98 09 3f 3d 03 fa bd
       0.76234806 -0.10448807 0.53748995 -0.12207649
000280 52 f0 2e 3f 79 75 92 3f d7 d7 05 bc f5 aa 17 bf
       0.6833545 1.14421 -0.008169136 -0.59245235
000290 e8 5d be 3e f6 50 c7 3e 0c 82 2a 3f 2d f3 5a 3f
       0.3718102 0.38928956 0.66604686 0.85527307
0002a0 0a 26 21 bf d2 0a 63 3f df b3 0d be 61 d9 2a bf
       -0.6294867 0.88688385 -0.13838147 -0.66737944
0002b0 af bb 8e 3e 30 f2 77 3f 5b 62 2e bf 38 16 ba 3f
       0.27877566 0.96853924 -0.6811883 1.4538031
0002c0 20 da 8b 3e 28 ee 3a 3f 2f 3e b3 3f 0f 4c 25 bf
       0.27314854 0.7301965 1.4003352 -0.6456918
0002d0 11 f3 49 be 2c 0c 9d 3f 37 41 69 3e ea b7 67 3f
       -0.19721629 1.226934 0.22778784 0.90515006
0002e0 74 2f 3d 3e f0 34 a5 bd df 45 12 3c 52 bd e4 3e
       0.18475133 -0.08066738 0.008927791 0.4467569
0002f0 fa 8c 0b be f6 4a a1 3d 78 96 2c 3f 8f 3d 87 bf
       -0.13627997 0.07875626 0.674171 -1.0565661
000300 87 ae 85 be d2 9e ff 3e eb dc b1 bd dc a5 cb be
       -0.26109716 0.49925858 -0.08684715 -0.39774978
000310 e1 5a e4 be df 55 84 3e c6 c5 04 3f 27 34 e1 bd
       -0.44600585 0.25846764 0.5186428 -0.109962754
000320 22 ae 2d 3f 6b ec a5 3f 5c 6a 30 3f 45 92 81 bf
       0.6784383 1.2962774 0.6891229 -1.0122763
000330 88 62 16 bf 4a 88 8b 3f bd 83 c6 3d 54 36 30 3d
       -0.58744097 1.0900967 0.09693096 0.04302056
000340 25 6d 0c be 6d 7d 55 be 72 7f a4 3c c3 6e 1d 3d
       -0.1371351 -0.20848627 0.020080302 0.03843571
000350 1f 08 02 be dc 28 c0 3d 90 0c eb bd 22 22 14 3e
       -0.1269841 0.09382793 -0.114770055 0.14466146
000360 52 9b e4 bb e3 7c ea bd dd 16 d2 3d a4 7e 39 be
       -0.0069765234 -0.114496015 0.10258267 -0.18114716
000370 bd 7c 61 be 57 ee 50 be 9d 93 ae bd 60 af 44 3e
       -0.2202024 -0.2040342 -0.08524249 0.19207525
000380 d8 44 30 bf f5 74 2a 3f 96 88 92 be 3c d4 a9 3e
       -0.6885505 0.6658471 -0.28619832 0.33169734
000390 1f 00 a1 3e a5 e6 0f 3d 67 ae 8d be 53 f4 09 bf
       0.31445405 0.03513207 -0.2767212 -0.53888434
0003a0 7d 52 4d 3f e3 f5 88 3f 66 6a 97 3f fd 28 2d bf
       0.8020399 1.0700039 1.1829345 -0.6764067
0003b0 6d 1b 89 bd 53 55 92 3f 82 67 67 bf 2d fd 25 3f
       -0.06694684 1.1432289 -0.90392315 0.6483944
0003c0 a5 9b 9f 3f 14 cf 1b be 81 52 4d bf 33 b9 46 3f
       1.2469374 -0.15215713 -0.80204016 0.7762634
0003d0 98 0f 86 bf 6e be 53 3f fc bd 34 bf 4c e4 26 3f
       -1.0473509 0.8271245 -0.70602393 0.65192103
0003e0 b2 59 8f 3f 57 4f 13 bf 1d dc 8f 3f 49 b0 0f bc
       1.1199248 -0.5754294 1.1239048 -0.008770057
0003f0 83 36 3f 3e d7 63 38 3f ea 20 ce be ac 82 cc 3d
       0.18673138 0.72027344 -0.40259486 0.09985861

l2.bias f4 [16]
000000 c9 43 4e be 7f aa 29 be 19 27 3b bd b4 f8 68 be
       -0.20143045 -0.16568945 -0.045691583 -0.22751123
000010 78 39 68 3e cb a6 e0 3e 92 1f 26 be 30 3f 6a 3d
       0.22678173 0.43877253 -0.1622298 0.057189167
000020 9d 5c 1d 3f 4c ca 96 3d eb 72 dc 3e ae b8 c9 3e
       0.6146944 0.07362804 0.43056425 0.39398712
000030 99 f5 e3 3d d1 93 5d be 0b 5f f5 bd ba df 8f 3e
       0.111308284 -0.21638419 -0.11981019 0.28100377

l3.weight f4 [29, 16]
000000 09 d2 1c be b9 0c 28 3e 55 48 12 be 9e 74 d4 bf
       -0.15314497 0.16411103 -0.14285405 -1.6598089
000010 88 65 83 be 93 2c 19 3e 24 6f 5b be 02 4b 40 bd
       -0.256634 0.1495841 -0.21429116 -0.046946533
000020 05 f8 96 3c 20 55 02 3f b3 3e c0 bf 9a a7 ca bf
       0.018428812 0.5091114 -1.5019134 -1.5832398
000030 d6 a8 34 be ee 65 33 be 9a db 2f 3a eb f8 7d 3e
       -0.17642531 -0.17519352 0.00067084434 0.24801986
000040 6e 91 67 bd ad 17 28 3e 11 01 18 3e 41 12 94 3e
       -0.056535177 0.16415282 0.14844157 0.28920177
000050 ad f5 0b bf fd 20 87 3d 6e 86 58 3e c2 ee 92 be
       -0.54671746 0.06598089 0.21145031 -0.28697783
000060 80 77 df 3c a5 28 ad be 3f 3d 42 bf ed cd 96 bf
       0.027278662 -0.33820072 -0.75874704 -1.1781594
000070 a6 9d 9d 3e 37 e1 fe 3d ac 56 2c 3e 37 ad b8 bc
       0.3078434 0.124453 0.16829938 -0.022543533
000080 5c d3 e2 3c 08 ff 07 bf 0e e5 11 bc 7e de b7 bf
       0.027688675 -0.5312352 -0.008904709 -1.4364774
000090 3c d6 50 bf 75 7b dd 3d 78 b3 2b 3d 32 a5 90 bf
       -0.81576896 0.10814563 0.0419192 -1.1300414
0000a0 ed 53 14 be ef 9b da 3e 77 d2 4c bd e9 ff 4f bf
       -0.1448514 0.42697093 -0.050005402 -0.8124986
0000b0 a8 47 40 3e 50 de 25 3d 9c 49 3e bd c8 c1 f1 3e
       0.18777335 0.040495217 -0.046456918 0.47218156
0000c0 ac ce 50 3e 16 c0 22 bf df 97 50 bd 7d 07 93 3e
       0.20391339 -0.6357435 -0.050926086 0.2871665
0000d0 6e 9e f8 bf e0 be 9d 3d 24 38 04 3e 04 01 c5 bf
       -1.9423349 0.07702422 0.12912041 -1.5390935
0000e0 ee 54 fd bd 7c ed 2c be 94 c7 38 3d 02 02 5d bf
       -0.12369715 -0.16887468 0.045112208 -0.8633119
0000f0 24 39 44 3e 2d 31 38 3d 6a 6d 05 3e 70 9b 69 3e
       0.19162422 0.044968773 0.1303002 0.22813201
000100 44 18 73 3d 77 f6 48 3d f7 79 87 be 25 9e 79 bd
       0.059349313 0.049063172 -0.2646024 -0.060941834
000110 cc ef af bf 1f 92 83 3e 9e 98 31 3e a6 81 e4 bf
       -1.3745055 0.2569742 0.17343375 -1.7852066
000120 cf 89 3d 3f a9 05 16 3e 4b af 69 be 3d a9 bc bf
       0.74038404 0.14650597 -0.22820775 -1.4739147
000130 d8 0b cd be c8 e7 a8 3d 46 f9 9b 3d d7 e0 31 be
       -0.400481 0.08247334 0.076159045 -0.17370926
000140 4a 71 3e 3e 7b a9 24 bf 47 8a 02 be 7c b9 f2 bf
       0.18597904 -0.64321107 -0.12748061 -1.8962855
000150 9b 15 38 3e 10 76 00 3f 60 1d af 3d 05 05 1a bd
       0.17976992 0.5018015 0.08550525 -0.037602443
000160 df 86 1d 3f 7e df 62 bf 1c 8a 93 3e eb a9 bf bf
       0.6153392 -0.8862227 0.28816307 -1.497373
000170 80 b5 57 bf f6 15 dc 3c a2 91 44 3e bf bd 9b bf
       -0.8426132 0.02686594 0.1919618 -1.2167281
000180 e9 b9 c1 bc 6e 65 33 3f 50 ab 99 3d fd f6 28 be
       -0.02364822 0.70076644 0.075033784 -0.16500469
000190 1a 59 79 bf 6f 12 33 3d 80 ad a1 bb 4a 23 10 bf
       -0.97401583 0.04371875 -0.004934013 -0.56303847
0001a0 7c 8c 37 3e eb 87 61 bf 66 eb d2 3e e7 99 89 be
       0.17924684 -0.8809802 0.4119522 -0.2687523
0001b0 c5 b3 a1 be d3 84 a9 bd f8 54 53 3e b9 4a cf bf
       -0.31582466 -0.08277287 0.20637882 -1.6194679
0001c0 b8 be 0e 3e b4 5e f1 3d 10 bf 49 3d 27 20 0f bf
       0.13939941 0.11785641 0.049254477 -0.55908436
0001d0 b4 74 6a 3e ec 93 c4 bc 10 69 c2 bd fb e7 d6 3e
       0.22896081 -0.023996316 -0.09492695 0.41973862
0001e0 72 1f 46 3e 3f bc a4 be 47 6c 04 bf 92 11 54 bf
       0.19347933 -0.3217487 -0.5172772 -0.8283931
0001f0 75 77 5b be 37 a5 88 bd 12 50 0c bd 84 99 24 bf
       -0.21432288 -0.06672137 -0.03425605 -0.64296746
000200 bf 8d 70 3e db 1c fb bd 50 1a e0 bc f8 71 49 3e
       0.23491572 -0.12261363 -0.027356297 0.19672382
000210 54 3d 89 3d 6e e4 ad bf ae ac 2f 3e ba d2 a9 3e
       0.067011505 -1.3585336 0.17155716 0.33168584
000220 07 f4 e4 3e 2a 49 ba bf fa 23 ac 3e 79 8b b0 be
       0.44717428 -1.4553578 0.33621198 -0.3448141
000230 14 42 a9 3d 90 05 84 be 5b 57 3c be 57 94 bb bf
       0.082645565 -0.25785494 -0.18392698 -1.4654645
000240 01 c6 5c be 50 2f b6 bf 35 96 5d 3c d1 d1 22 be
       -0.21559907 -1.4233189 0.013524582 -0.15900351
000250 a6 09 cb be 4b 53 1a be a8 7a 4c be e2 0f 82 bf
       -0.396558 -0.15070836 -0.19968665 -1.0161097
000260 0d de 17 be 1d 73 08 c0 5b 5b 1f 3f 17 3a ed 3e
       -0.148308 -2.132026 0.6224877 0.46333382
000270 25 42 06 3f 66 ab 1b be db 93 86 3d f0 da 0e c0
       0.5244468 -0.15202102 0.0657117 -2.232113
000280 ef c8 fa bd 1c 19 46 be e8 a6 18 bd ca 28 2c 3c
       -0.12245356 -0.19345516 -0.03726855 0.010507772
000290 71 87 86 bc c1 14 a5 bf 1a af 48 be 6d 69 55 bd
       -0.016422005 -1.2896959 -0.19598046 -0.052102495
0002a0 42 00 95 bf ce c4 e1 bf fb 68 ee bd 7a 1f dd 3e
       -1.1640704 -1.7638185 -0.11641117 0.43188077
0002b0 9c b9 02 3f 60 91 ca bd 36 76 df bd 57 d2 d7 bd
       0.5106447 -0.09891009 -0.10911219 -0.10538166
0002c0 9b 5e 78 be 01 ff ee be 86 41 02 3d 44 ab 01 3f
       -0.24254839 -0.46678928 0.03180077 0.50651956
0002d0 7f b4 ab bf 2c f3 75 bd 20 57 cb bc d8 33 aa bf
       -1.3414458 -0.06004636 -0.024821818 -1.3297071
0002e0 0a 86 38 be 6c d1 d8 bf c1 d2 42 3e 2a e6 b5 bd
       -0.18019882 -1.693891 0.19025709 -0.08881791
0002f0 1b b5 9b 3e 0e fc 06 bd 3b 6b e1 3d 49 7d 84 bd
       0.3041161 -0.03295522 0.11006781 -0.06469209
000300 3e 1b 18 3d e8 ca b2 3e 00 23 04 be 64 20 da 3e
       0.037135355 0.3492043 -0.12903976 0.42602837
000310 46 72 f6 3e 56 22 a0 bf c0 3d 29 3c f6 0c fa 3e
       0.4813406 -1.2510478 0.010329664 0.48838013
000320 c8 92 49 bf 2e b8 e1 be b5 6a 85 bf 0d 81 0d 3e
       -0.78739595 -0.4408583 -1.0423189 0.1381876
000330 9d b1 58 be 20 63 51 be 3f ae 9d bf 81 02 82 bf
       -0.21161504 -0.2044797 -1.2318801 -1.0157014
000340 ac 11 78 bd 24 30 a9 bd ae 01 92 3d 3e 22 20 3f
       -0.06056373 -0.08261135 0.071292266 0.6255225
000350 8b ae 2d be dd c8 a1 be b0 25 86 3d c9 4a 27 be
       -0.16961114 -0.3159856 0.06550157 -0.16337122
000360 08 ee be bf 88 a1 72 be 14 af 00 bf d6 f6 36 3e
       -1.4916391 -0.23694432 -0.5026715 0.17867598
000370 7e 3a e6 bd f5 f3 6c 3b 91 8c 0a bf 61 99 24 3a
       -0.11241625 0.0036156152 -0.5412074 0.0006278959
000380 d0 00 0c be c1 36 c4 bf fa f2 43 be df 54 fa bf
       -0.13672185 -1.532921 -0.19135657 -1.9557151
000390 2c bb e1 bf ae f1 a4 3e d4 70 76 3e b6 d5 d5 bf
       -1.7635245 0.32215637 0.24066478 -1.6705844
0003a0 75 4c 35 3e 6c 0e 9d bf ab 5f fd 3e 5f bf ae 3e
       0.17704947 -1.2270026 0.4948705 0.3413038
0003b0 b3 07 a3 3d 7a 03 a9 3d 30 6a e5 bd b0 cd 0e 3f
       0.07960453 0.08252616 -0.11201894 0.55782604
0003c0 72 d2 06 3d ce 0a 2a be 2e f3 1b be 32 b7 21 bf
       0.03291554 -0.16605684 -0.15229484 -0.6317016
0003d0 a7 00 9b 3e 83 51 18 c0 30 19 f3 bd 5d f9 50 3e
       0.30273935 -2.379975 -0.118700385 0.20407625
0003e0 e9 02 66 bf bb d8 9f 3e 3c d7 ca bd 77 9a 52 3e
       -0.8984819 0.3122004 -0.09904334 0.20566736
0003f0 25 53 71 bf fa 81 85 be 00 e4 c5 bf 48 4f 5c 3c
       -0.94267493 -0.26075727 -1.5460205 0.0134466365

l3.bias f4 [29]
000000 8c 50 d0 b8 d0 90 bf be 54 76 9f be a9 56 37 be
       -9.933216e-05 -0.3741517 -0.31144965 -0.17904152
000010 3f a1 63 3e 95 4c 9d 3e 7a 41 69 3e 87 97 65 be
       0.22229479 0.3072249 0.22778884 -0.22421084
000020 30 59 bc 3d 77 00 07 be 70 54 2b 3e 3a 37 19 be
       0.09196699 -0.13183771 0.16731429 -0.14962474
000030 1b 55 71 bd 82 34 85 bd 11 45 89 3e c0 ed 3e 3d
       -0.058919054 -0.06504156 0.26810506 0.046613455
000040 b4 39 8d 3d 69 1e e3 be ac 85 98 3e 11 9a a6 bc
       0.068957716 -0.4435914 0.29789484 -0.020337136
000050 a7 bc d7 be 97 f1 a2 bd ba f6 c8 3e 12 56 68 bd
       -0.42136118 -0.07956236 0.39250737 -0.056722708
000060 3b de 22 3b 37 54 fc b9 7a cf 57 3d 76 db 19 bd
       0.0024851698 -0.0004812793 0.0526881 -0.03756281
000070 69 a1 81 bd
       -0.06329615
